
nc: 1000 
scales:
  n: [0.33, 0.5, 1024]

backbone:
  # [from, repeats, module, args]
  - [-1, 1, CNA, [64,   3, 2, None, 1, 1, nn.GELU, nn.BatchNorm2d]] # 0-P1/2
  - [-1, 1, CNA, [128,  3, 2, None, 1, 1, nn.GELU, nn.BatchNorm2d]] # 1-P2/4
  - [-1, 3, DCNv4_Stage, [128]]
  - [-1, 1, CNA, [256,  3, 2, None, 1, 1, nn.GELU, nn.BatchNorm2d]] # 3-P3/8
  - [-1, 6, DCNv4_Stage, [256]]
  - [-1, 1, CNA, [512,  3, 2, None, 1, 1, nn.GELU, nn.BatchNorm2d]] # 5-P4/16
  - [-1, 6, DCNv4_Stage, [512]]
  - [-1, 1, CNA, [1024, 3, 2, None, 1, 1, nn.GELU, nn.BatchNorm2d]] # 7-P5/32
  - [-1, 3, DCNv4_Stage, [1024]]
  
head:
  - [-1, 1, ClassificationHead, [nc]] 
